models/tmpm7e_wu5v/_tmp.pth (torch, 131602 bytes, 18 tensors)

encoder.0.weight f4 [65, 130]
0	0x3d7beabe	0.061503164
1	0x3d637cce	0.055538945
2	0x3ccbc134	0.0248724
3	0xbc314970	-0.0108207315
4	0x3cdd3c1c	0.027006201
5	0x3d61f08a	0.055161037
6	0xbb054ca0	-0.0020339862
7	0x3d394ea6	0.04524102
8	0x3d39a9f2	0.045328088
9	0x3d7e3b26	0.062068127
10	0x3d9a9eed	0.07549844
11	0x3c9ad31c	0.018899493
12	0xbd8d1b13	-0.068899296
13	0xbd087a9d	-0.033320058
14	0xbd2819c5	-0.0410402
15	0xbbcc4f80	-0.006235063
16	0xbdabda57	-0.083912544
17	0x3d640b7a	0.055675007
18	0x3d8cee9f	0.06881451
19	0x3d1d8a4e	0.038461976
20	0x3b86f430	0.004118465
21	0xbda1cf9a	-0.07900925
22	0x398cef00	0.0002688095
23	0xbcf3ea40	-0.029774785
24	0x3d938f99	0.072051235
25	0x3d280216	0.041017614
26	0x3d1ec01a	0.03875742
27	0xbd395d66	-0.045255087
28	0x3dae09a9	0.08497936
29	0x3c690480	0.014222264
30	0xbbdb7930	-0.0066977963
31	0xbcdb5a3a	-0.026776422
32	0x3d11fad6	0.035639606
33	0x3d672eba	0.056441046
34	0xbda743b8	-0.08167213
35	0xbcb0d338	-0.021585092
36	0x3d8454d5	0.06461493
37	0x3ca31f34	0.01991234
38	0xb90b0000	-0.00013256073
39	0x3d25fb22	0.040522702
40	0x3d1e1dbe	0.038602583
41	0x3da6baa9	0.08141071
42	0xbd30e571	-0.043187562
43	0x3d92fae3	0.07176759
44	0x3b5cfa40	0.0033718497
45	0xbcfd99d4	-0.03095714
46	0xbda6e6e2	-0.08149506
47	0x3d418d06	0.04725363
48	0xbd6efd2a	-0.058346905
49	0x3cce2bbc	0.025167339
50	0xbd1466cc	-0.036230847
51	0x3d8fe1e3	0.07025506
52	0xbd8d34b6	-0.068948194
53	0xbd844753	-0.064589165
54	0xbd8a0678	-0.06739515
55	0xbd4ffb1f	-0.050776597
56	0x3bacd7c0	0.005274743
57	0xbd70abe6	-0.058757685
58	0xbc208ae8	-0.009798743
59	0x3d77de7e	0.06051492
60	0xbc8866ec	-0.01665064
61	0xbb8d3cd0	-0.004310228
62	0x3d01d074	0.031692937
63	0x3d689022	0.05677808
64	0xbcd6f51e	-0.026239928
65	0x3d0067f6	0.031349145
66	0x3c833944	0.016018517
67	0x3d29102e	0.041275196
68	0xbcce87dc	-0.025211267
69	0x3cc89e08	0.024489418
70	0x3d130f00	0.035902977
71	0xbd852240	-0.06500673
72	0xbcae75fc	-0.021296494
73	0xbd37f937	-0.044915404
74	0xbd38efd5	-0.045150597
75	0xbcece2d6	-0.028916758
76	0xbda83d4e	-0.08214818
77	0x3baf4690	0.005348988
78	0x3d0b4d2e	0.03400915
79	0x3d74c57a	0.05975864
80	0xbbc50db0	-0.0060135946
81	0x3d2b827e	0.041872494
82	0xbcdfaf66	-0.027305316
83	0xbd9a20ba	-0.07525773
84	0xbb541a00	-0.003236413
85	0x3d7f87b2	0.06238527
86	0xbd7ec6db	-0.062201362
87	0x3cde6204	0.027146347
88	0xbb0eb500	-0.0021775365
89	0x3ce3b334	0.027795412
90	0x3ccacca4	0.024755783
91	0x3daaae6b	0.08334049
92	0x3d0c384c	0.034233376
93	0xbd903916	-0.07042138
94	0x3db1f1c9	0.08688695
95	0x3dab05ad	0.08350692
96	0xbd2f5146	-0.042802118
97	0xbda7be3f	-0.081905834
98	0x3cd71d0c	0.026258968
99	0x3ceecce4	0.029150434
100	0xbdabf4a7	-0.08396273
101	0xbd750a8e	-0.05982452
102	0x3b2608a0	0.002533473
103	0xbd1283ef	-0.035770353
104	0x3d66195e	0.056176536
105	0x3d8c0bd5	0.06838194
106	0x3ccf6794	0.025317945
107	0xbcd69c30	-0.026197523
108	0xbd29d2c4	-0.041460767
109	0xbd4cb953	-0.049981426
110	0xbd97e1e0	-0.07416129
111	0xbd542076	-0.05178877
112	0xbda634cc	-0.08115539
113	0x3d897b7b	0.06713005
114	0x3d06d84c	0.03292112
115	0xbd709fdf	-0.058746215
116	0x3d82fb27	0.0639556
117	0xbda4b1ec	-0.080417484
118	0xbd63e63d	-0.055639494
119	0x3d8fabb1	0.070151694
120	0xbcf43b2a	-0.029813368
121	0x3be84e40	0.0070894063
122	0xbd494123	-0.049134385
123	0x3cdfca64	0.027318187
124	0x3ce913b0	0.02845177
125	0x3d549b6a	0.051906027
126	0xbdac4a18	-0.0841257
127	0xbd745da7	-0.059659626
128	0x3cda1d00	0.026625156
129	0x3c814824	0.01578147
130	0xbcfd3154	-0.03090731
131	0x3cb7f3ec	0.022455178
132	0x3cda54f8	0.026651844
133	0xbd1c7d42	-0.038205393
134	0x3d0f4146	0.03497436
135	0xbcba0f40	-0.02271235
136	0xbb184540	-0.0023234636
137	0xbcd5f65a	-0.026118446
138	0xbbb311a0	-0.0054647475
139	0x3da45ced	0.08025537
140	0x3d1542cc	0.036440656
141	0xbd3e2d12	-0.0464297
142	0xb9440000	-0.00018692017
143	0x3cea2844	0.028583653
144	0x3c98a040	0.0186311
145	0xbd94fe4a	-0.07275064
146	0xbc00e2c8	-0.007866569
147	0x3d7b3886	0.0613332
148	0xbc1b9a20	-0.0094971955
149	0x3c8cc654	0.017184414
150	0xbd4582ee	-0.048220567
151	0xbc92d6e8	-0.01792474
152	0x3d27b94e	0.040948205
153	0x3d23472e	0.039862804
154	0xbd716882	-0.058937557
155	0xbd7412d4	-0.05958827
156	0xbd2fa661	-0.04288328
157	0x3d694666	0.056951903
158	0x3c47f2d8	0.012203895
159	0x3c7672b8	0.0150419995
160	0x3d75097e	0.059823506
161	0x3ce02954	0.027363457
162	0x3d8b4419	0.06800098
163	0xbbf7d460	-0.007563159
164	0x3d100696	0.03516253
165	0x3d34b55e	0.044118278
166	0x3bf57030	0.0074901804
167	0x3d47d83a	0.048790194
168	0x3d108878	0.035286397
169	0xbd1cf129	-0.038315926
170	0x3da99899	0.08281059
171	0xbda07cf7	-0.07836335
172	0x3cbf838c	0.023378156
173	0xbd905736	-0.07047884
174	0xbc49dd70	-0.012320861
175	0xbd9aa542	-0.07551052
176	0xbca1493c	-0.019688241
177	0x3d9528b5	0.07283155
178	0x3ca34a78	0.01993297
179	0xbda6c09b	-0.08142205
180	0x3d509d96	0.050931536
181	0x3d829fe3	0.06378152
182	0xbc977e4c	-0.01849284
183	0x3c0b4750	0.008500889
184	0xbd294399	-0.04132423
185	0xbd5d8939	-0.054085944
186	0x3cc5bcb8	0.02413784
187	0xbbb46720	-0.0055054575
188	0x3c8b1280	0.016976595
189	0x3c034530	0.008012101
190	0xbd8143ca	-0.06311758
191	0xbcdfb332	-0.027307127
192	0xbd9672f7	-0.073461466
193	0x39992200	0.00029207766
194	0x3b16bee0	0.0023001954
195	0xbd841e43	-0.064510845
196	0xbc38c458	-0.011277281
197	0x3c286368	0.010277607
198	0x3d535f72	0.051604696
199	0xbd931edf	-0.071836226
200	0xbd242129	-0.040070686
201	0xbd82cd1d	-0.063867785
202	0x3c03ae20	0.00803712
203	0x3d93c987	0.07216173
204	0x3d0ce9e6	0.03440275
205	0xbda23f30	-0.07922208
206	0x3da177a5	0.078841485
207	0x3d6bf652	0.057607956
208	0x3cd3bc08	0.025846496
209	0x3d81378d	0.063094236
210	0xbda378af	-0.07982003
211	0x3cc6ec18	0.0242825
212	0x3d81ec81	0.06343938
213	0x3ce10590	0.027468473
214	0x3d2e24c6	0.04251554
215	0xbd6cce0d	-0.057813693
216	0x3d6f4dc2	0.058423765
217	0xbd337fee	-0.043823175
218	0xbd74c59b	-0.059758764
219	0x3d8c69a3	0.06856086
220	0x3d2b2e9a	0.04179249
221	0xbdb0522b	-0.08609422
222	0x3d9c343d	0.07627151
223	0xbc8d5a84	-0.017255075
224	0xbdac32e7	-0.08408146
225	0x3bb519e0	0.005526766
226	0x3d5ed7a2	0.054404862
227	0xbc496338	-0.012291722
228	0xbb80e920	-0.0039340407
229	0xbc3cf5a8	-0.011533178
230	0xbd0cccbf	-0.03437495
231	0x3d88d3e1	0.06681038
232	0x3d14c03c	0.03631614
233	0x3d5837ae	0.052787475
234	0x39450200	0.00018788129
235	0xbd0ab10d	-0.033860255
236	0x3d966d73	0.073450945
237	0x3da194f9	0.078897424
238	0x3d9d893d	0.07692192
239	0x3af10140	0.0018387213
240	0x3d4bb82a	0.04973618
241	0x3d0f6aa8	0.035013825
242	0x3a41eb80	0.0007397458
243	0x3d9bbb79	0.07604117
244	0x3d04c18e	0.03241115
245	0x3d5a41ba	0.053285338
246	0x3d0f36e6	0.034964465
247	0xbc55e228	-0.013054408
248	0xbdb185e9	-0.086681195
249	0x3c4ace28	0.012378253
250	0x3d2cf41e	0.042224996
251	0x3d56cdca	0.05244235
252	0xbc145490	-0.009053364
253	0x3c0b0570	0.008485183
254	0x3d8b4645	0.06800512
255	0x3d934145	0.071901836

encoder.0.bias f4 [65]
0	0x3dad5c25	0.08464841
1	0xbc4c63d8	-0.0124749765
2	0xbcba4ee0	-0.022742689
3	0xbd44d2f3	-0.04805274
4	0x3d0124b0	0.03152913
5	0xbd1eeb25	-0.03879847
6	0x3c38d9e0	0.011282414
7	0xbdb1157e	-0.086466774
8	0x3d29622e	0.041353397
9	0x3d9737fd	0.07383726
10	0xbcbacbf8	-0.022802338
11	0x3d88de97	0.06683081
12	0xbcbd78cc	-0.02312889
13	0x3d58ecb2	0.052960105
14	0xbd0c8bec	-0.034313127
15	0x3d1091b0	0.03529519
16	0xbd8edad3	-0.06975331
17	0x3d03bb02	0.032160766
18	0x3ae6e100	0.0017614663
19	0x3da5a7cf	0.080886476
20	0x3c834d8c	0.016028188
21	0x3d4e6fde	0.050399654
22	0xbc4e82a8	-0.012604393
23	0xbd7ac114	-0.06121929
24	0x3d67fb96	0.056636415
25	0xbc0f6c48	-0.008753844
26	0x3da5732d	0.08078609
27	0xbd83ca1a	-0.06435032
28	0xbcc15bb0	-0.02360329
29	0xbcac7c08	-0.021055236
30	0xbd9a337c	-0.07529351
31	0x3b5c7d20	0.0033643916
32	0xbd4559eb	-0.048181456
33	0xbd7bffb4	-0.061523154
34	0xbda9f23f	-0.08298158
35	0x3b25d600	0.0025304556
36	0xbda41e2b	-0.080135666
37	0xbd3c9032	-0.046035953
38	0x3d83ed45	0.0644174
39	0xbd41c37c	-0.04730557
40	0x3d324d6a	0.04353086
41	0x3d2697a6	0.040671967
42	0xbc197a20	-0.009367496
43	0x3da71ff9	0.08160395
44	0x3dadcd5f	0.08486437
45	0xbc962c20	-0.018331587
46	0xbc338308	-0.010956533
47	0xbc660c10	-0.014040962
48	0xbcbba9a8	-0.022908047
49	0xbd4255ee	-0.04744523
50	0x3bc80b20	0.006104842
51	0xbd82d1d0	-0.06387675
52	0xbd9775e9	-0.073955365
53	0xbd2bd2d9	-0.041949127
54	0x3da0a8c3	0.07844689
55	0xbd4f1d29	-0.05056492
56	0x3c3a47a8	0.011369623
57	0x3d601342	0.054705866
58	0xbd81850c	-0.06324205
59	0xbc3b4cb0	-0.011431858
60	0xbd1cd494	-0.038288668
61	0x3c644368	0.0139320865
62	0xbd15f0a4	-0.036606446
63	0x3d374c0e	0.044750266
64	0x3db1545f	0.08658671

encoder.2.weight f4 [65]
0	0x3f800000	1.0
1	0x3f800000	1.0
2	0x3f800000	1.0
3	0x3f800000	1.0
4	0x3f800000	1.0
5	0x3f800000	1.0
6	0x3f800000	1.0
7	0x3f800000	1.0
8	0x3f800000	1.0
9	0x3f800000	1.0
10	0x3f800000	1.0
11	0x3f800000	1.0
12	0x3f800000	1.0
13	0x3f800000	1.0
14	0x3f800000	1.0
15	0x3f800000	1.0
16	0x3f800000	1.0
17	0x3f800000	1.0
18	0x3f800000	1.0
19	0x3f800000	1.0
20	0x3f800000	1.0
21	0x3f800000	1.0
22	0x3f800000	1.0
23	0x3f800000	1.0
24	0x3f800000	1.0
25	0x3f800000	1.0
26	0x3f800000	1.0
27	0x3f800000	1.0
28	0x3f800000	1.0
29	0x3f800000	1.0
30	0x3f800000	1.0
31	0x3f800000	1.0
32	0x3f800000	1.0
33	0x3f800000	1.0
34	0x3f800000	1.0
35	0x3f800000	1.0
36	0x3f800000	1.0
37	0x3f800000	1.0
38	0x3f800000	1.0
39	0x3f800000	1.0
40	0x3f800000	1.0
41	0x3f800000	1.0
42	0x3f800000	1.0
43	0x3f800000	1.0
44	0x3f800000	1.0
45	0x3f800000	1.0
46	0x3f800000	1.0
47	0x3f800000	1.0
48	0x3f800000	1.0
49	0x3f800000	1.0
50	0x3f800000	1.0
51	0x3f800000	1.0
52	0x3f800000	1.0
53	0x3f800000	1.0
54	0x3f800000	1.0
55	0x3f800000	1.0
56	0x3f800000	1.0
57	0x3f800000	1.0
58	0x3f800000	1.0
59	0x3f800000	1.0
60	0x3f800000	1.0
61	0x3f800000	1.0
62	0x3f800000	1.0
63	0x3f800000	1.0
64	0x3f800000	1.0

encoder.2.bias f4 [65]
0	0x00000000	0.0
1	0x00000000	0.0
2	0x00000000	0.0
3	0x00000000	0.0
4	0x00000000	0.0
5	0x00000000	0.0
6	0x00000000	0.0
7	0x00000000	0.0
8	0x00000000	0.0
9	0x00000000	0.0
10	0x00000000	0.0
11	0x00000000	0.0
12	0x00000000	0.0
13	0x00000000	0.0
14	0x00000000	0.0
15	0x00000000	0.0
16	0x00000000	0.0
17	0x00000000	0.0
18	0x00000000	0.0
19	0x00000000	0.0
20	0x00000000	0.0
21	0x00000000	0.0
22	0x00000000	0.0
23	0x00000000	0.0
24	0x00000000	0.0
25	0x00000000	0.0
26	0x00000000	0.0
27	0x00000000	0.0
28	0x00000000	0.0
29	0x00000000	0.0
30	0x00000000	0.0
31	0x00000000	0.0
32	0x00000000	0.0
33	0x00000000	0.0
34	0x00000000	0.0
35	0x00000000	0.0
36	0x00000000	0.0
37	0x00000000	0.0
38	0x00000000	0.0
39	0x00000000	0.0
40	0x00000000	0.0
41	0x00000000	0.0
42	0x00000000	0.0
43	0x00000000	0.0
44	0x00000000	0.0
45	0x00000000	0.0
46	0x00000000	0.0
47	0x00000000	0.0
48	0x00000000	0.0
49	0x00000000	0.0
50	0x00000000	0.0
51	0x00000000	0.0
52	0x00000000	0.0
53	0x00000000	0.0
54	0x00000000	0.0
55	0x00000000	0.0
56	0x00000000	0.0
57	0x00000000	0.0
58	0x00000000	0.0
59	0x00000000	0.0
60	0x00000000	0.0
61	0x00000000	0.0
62	0x00000000	0.0
63	0x00000000	0.0
64	0x00000000	0.0

encoder.2.running_mean f4 [65]
0	0x00000000	0.0
1	0x00000000	0.0
2	0x00000000	0.0
3	0x00000000	0.0
4	0x00000000	0.0
5	0x00000000	0.0
6	0x00000000	0.0
7	0x00000000	0.0
8	0x00000000	0.0
9	0x00000000	0.0
10	0x00000000	0.0
11	0x00000000	0.0
12	0x00000000	0.0
13	0x00000000	0.0
14	0x00000000	0.0
15	0x00000000	0.0
16	0x00000000	0.0
17	0x00000000	0.0
18	0x00000000	0.0
19	0x00000000	0.0
20	0x00000000	0.0
21	0x00000000	0.0
22	0x00000000	0.0
23	0x00000000	0.0
24	0x00000000	0.0
25	0x00000000	0.0
26	0x00000000	0.0
27	0x00000000	0.0
28	0x00000000	0.0
29	0x00000000	0.0
30	0x00000000	0.0
31	0x00000000	0.0
32	0x00000000	0.0
33	0x00000000	0.0
34	0x00000000	0.0
35	0x00000000	0.0
36	0x00000000	0.0
37	0x00000000	0.0
38	0x00000000	0.0
39	0x00000000	0.0
40	0x00000000	0.0
41	0x00000000	0.0
42	0x00000000	0.0
43	0x00000000	0.0
44	0x00000000	0.0
45	0x00000000	0.0
46	0x00000000	0.0
47	0x00000000	0.0
48	0x00000000	0.0
49	0x00000000	0.0
50	0x00000000	0.0
51	0x00000000	0.0
52	0x00000000	0.0
53	0x00000000	0.0
54	0x00000000	0.0
55	0x00000000	0.0
56	0x00000000	0.0
57	0x00000000	0.0
58	0x00000000	0.0
59	0x00000000	0.0
60	0x00000000	0.0
61	0x00000000	0.0
62	0x00000000	0.0
63	0x00000000	0.0
64	0x00000000	0.0

encoder.2.running_var f4 [65]
0	0x3f800000	1.0
1	0x3f800000	1.0
2	0x3f800000	1.0
3	0x3f800000	1.0
4	0x3f800000	1.0
5	0x3f800000	1.0
6	0x3f800000	1.0
7	0x3f800000	1.0
8	0x3f800000	1.0
9	0x3f800000	1.0
10	0x3f800000	1.0
11	0x3f800000	1.0
12	0x3f800000	1.0
13	0x3f800000	1.0
14	0x3f800000	1.0
15	0x3f800000	1.0
16	0x3f800000	1.0
17	0x3f800000	1.0
18	0x3f800000	1.0
19	0x3f800000	1.0
20	0x3f800000	1.0
21	0x3f800000	1.0
22	0x3f800000	1.0
23	0x3f800000	1.0
24	0x3f800000	1.0
25	0x3f800000	1.0
26	0x3f800000	1.0
27	0x3f800000	1.0
28	0x3f800000	1.0
29	0x3f800000	1.0
30	0x3f800000	1.0
31	0x3f800000	1.0
32	0x3f800000	1.0
33	0x3f800000	1.0
34	0x3f800000	1.0
35	0x3f800000	1.0
36	0x3f800000	1.0
37	0x3f800000	1.0
38	0x3f800000	1.0
39	0x3f800000	1.0
40	0x3f800000	1.0
41	0x3f800000	1.0
42	0x3f800000	1.0
43	0x3f800000	1.0
44	0x3f800000	1.0
45	0x3f800000	1.0
46	0x3f800000	1.0
47	0x3f800000	1.0
48	0x3f800000	1.0
49	0x3f800000	1.0
50	0x3f800000	1.0
51	0x3f800000	1.0
52	0x3f800000	1.0
53	0x3f800000	1.0
54	0x3f800000	1.0
55	0x3f800000	1.0
56	0x3f800000	1.0
57	0x3f800000	1.0
58	0x3f800000	1.0
59	0x3f800000	1.0
60	0x3f800000	1.0
61	0x3f800000	1.0
62	0x3f800000	1.0
63	0x3f800000	1.0
64	0x3f800000	1.0

encoder.4.weight f4 [50, 65]
0	0xbd878c54	-0.06618562
1	0xbd078fa6	-0.03309598
2	0xbd134f36	-0.035964213
3	0xbde19aa4	-0.110158235
4	0x3dc57b1c	0.09642622
5	0xbdba9f9f	-0.091124766
6	0xbd5205d0	-0.051275074
7	0x3d143920	0.03618729
8	0xbd495f50	-0.049163163
9	0x3df4e9ac	0.11958632
10	0xbc9c9d4c	-0.019117974
11	0xbd8112d8	-0.06302422
12	0x3d6f1178	0.05836627
13	0x3dece376	0.11566822
14	0xbd959588	-0.073039114
15	0xbd960928	-0.07325965
16	0x3947e600	0.000190638
17	0x3d921eba	0.07134767
18	0xbd977b82	-0.07396604
19	0x3b671d00	0.0035265088
20	0x3d849876	0.06474392
21	0x3caa3150	0.020775467
22	0x3dd4aa9a	0.10384102
23	0xbcc20f5c	-0.023688965
24	0x3d0f1d48	0.034940034
25	0xbdc79810	-0.097458005
26	0xbd1adae6	-0.037806414
27	0xbd8719a2	-0.06596686
28	0xbd428bee	-0.04749673
29	0x3cf7b648	0.030238286
30	0x3d795250	0.060869515
31	0x3da7acbc	0.08187243
32	0xbd6fc29e	-0.05853521
33	0x3d2936fc	0.041312203
34	0x3cd1cd90	0.025610715
35	0x3cf05e58	0.029341862
36	0x3d0a53c8	0.033771306
37	0xbdb5a746	-0.088697955
38	0xbd9d2341	-0.0767274
39	0x3d0b1ac4	0.033961073
40	0x3db03a12	0.08604826
41	0x3d86b042	0.06576587
42	0xbc031668	-0.008000948
43	0x3cb26e28	0.021781042
44	0x3d8fed08	0.07027632
45	0xbdb7d44e	-0.08976041
46	0x3ccdbba8	0.025113896
47	0xbdfb50d9	-0.1227128
48	0x3d436b24	0.0477096
49	0x3c8238a0	0.015896142
50	0x3cc44708	0.023959652
51	0x3d549a60	0.051905036
52	0x3d08fcb0	0.033444107
53	0x3cff6ca0	0.031179726
54	0x3c947d20	0.01812607
55	0xbd580b92	-0.05274541
56	0xbdc259ac	-0.0948976
57	0xbd227d44	-0.039670244
58	0xbdd7aec0	-0.10531378
59	0x3dc2c34c	0.09509906
60	0x3dd71aa8	0.10503131
61	0x3ca2b890	0.019863397
62	0x3d08f55c	0.033437118
63	0xbdc09ad6	-0.094045326
64	0x3dcc7042	0.09982349
65	0x3df4214a	0.11920412
66	0xbd52e99c	-0.05149232
67	0x3da3efa2	0.08004691
68	0xbd4d7e5a	-0.050169326
69	0xbda9a3db	-0.08283206
70	0xbc4b21b0	-0.012398168
71	0xbd9f6cc4	-0.07784417
72	0xbd9a0d8a	-0.075221136
73	0x3dbd9d8e	0.09258567
74	0xbd9d026c	-0.076664776
75	0xbc91fda8	-0.017821148
76	0x3d88018a	0.066409186
77	0xbd3d8a14	-0.04627426
78	0x3de70200	0.11279678
79	0x3d83461c	0.06409857
80	0x3de06efc	0.109586686
81	0xbc800b38	-0.01563035
82	0xbdfd83c3	-0.12378647
83	0xbc18fe50	-0.009337977
84	0x3d6677d4	0.05626662
85	0x3d2f25d8	0.0427607
86	0x3d623d30	0.055234134
87	0x3de40dda	0.111354545
88	0xbded623c	-0.11591002
89	0x3cd21778	0.025645956
90	0x3dddf55e	0.10837816
91	0x3deba4d4	0.11506048
92	0x3d19abd4	0.037517384
93	0xbd75511c	-0.059891805
94	0x3c6f1990	0.014593497
95	0xbd153fdc	-0.036437854
96	0xbde0a1d6	-0.10968368
97	0xbc1a56c8	-0.009420104
98	0x3c912800	0.017719269
99	0x3d37e22c	0.04489343
100	0xbd7929a2	-0.06083072
101	0xbc419dd8	-0.011817418
102	0xbdbf4e35	-0.09341089
103	0xbdb749ae	-0.089496
104	0x3dc8998e	0.09794913
105	0xbcde3520	-0.027124941
106	0xbdf8ff10	-0.12158024
107	0xbce88cfc	-0.02838754
108	0x3cf909d8	0.030400202
109	0x3da9a93a	0.082842305
110	0xbdfc240c	-0.12311563
111	0xbd247d48	-0.04015854
112	0xbdd28bb4	-0.102805525
113	0x3d015b2c	0.03158109
114	0x3c3cd130	0.011524484
115	0xbd87c56a	-0.066294506
116	0x3d8bf358	0.068335235
117	0xbd898dae	-0.067164764
118	0xbd57a6e2	-0.052649386
119	0xbd9f31aa	-0.077731445
120	0xbd6c6dea	-0.05772201
121	0xbdc4ce16	-0.0960962
122	0x3db9043c	0.09034011
123	0xbca74988	-0.020420805
124	0xbdcfc88f	-0.101456754
125	0x3d4a4d50	0.049390137
126	0xbdb6fe17	-0.089351825
127	0xbdcd4437	-0.100227766
128	0x3d441d7c	0.04787968
129	0x3c0ef940	0.008726418
130	0xbcb503d8	-0.02209656
131	0x3d2a862c	0.041631863
132	0x3db20998	0.08693236
133	0xbdf65201	-0.1202736
134	0x3d1bfea0	0.038084626
135	0x3c850d60	0.01624173
136	0x3d39dab8	0.045374602
137	0xbd88674a	-0.06660326
138	0x3cbe4080	0.023224115
139	0xbc7c4f68	-0.015399791
140	0x3da0821a	0.07837315
141	0x3dd73ddc	0.105098456
142	0x3df3030e	0.11865817
143	0x3d437814	0.047721937
144	0x3c2bb0e0	0.010479182
145	0x3d26efc8	0.040756017
146	0x3db449c8	0.08803135
147	0x3ddf5cb8	0.109063566
148	0xbc72c368	-0.014817096
149	0x3cf43200	0.029808998
150	0x3d18953c	0.037251696
151	0xbca45398	-0.020059392
152	0xbca3d778	-0.020000204
153	0xbda31a10	-0.079639554
154	0x3df58f50	0.11990225
155	0x3b260ec0	0.0025338382
156	0x3de38210	0.11108792
157	0xbbd8aa40	-0.0066120923
158	0xbccb8578	-0.024843916
159	0x3d413dd0	0.04717809
160	0xbd5d8428	-0.054081112
161	0x3b6cb180	0.003611654
162	0x3dbce946	0.09224181
163	0x3de3f786	0.11131196
164	0xbdaaaca5	-0.083337106
165	0xbce0b15c	-0.027428322
166	0xbd2b82b6	-0.041872703
167	0xbdbf3552	-0.09336342
168	0x3dc85d16	0.0978338
169	0xbd8c2722	-0.068434015
170	0xbd85065b	-0.06495353
171	0x3da23792	0.079207554
172	0x3d7b347c	0.06132935
173	0xbd70c870	-0.058784902
174	0xbaea3180	-0.0017867535
175	0x3d7119b0	0.058862388
176	0x3d60fd80	0.054929256
177	0xbd49ec24	-0.049297467
178	0x3c654960	0.013994545
179	0x3dd5697a	0.10420509
180	0x3b09b880	0.0021014512
181	0x3c8d4b30	0.017247766
182	0x3d4e2228	0.050325543
183	0xbbeaa520	-0.0071607977
184	0x3dfcaca2	0.123376146
185	0xbd892918	-0.06697291
186	0x3dc88ec0	0.097928524
187	0xbd87c13d	-0.06628654
188	0xbda165f6	-0.07880776
189	0x3db78684	0.08961204
190	0xbde51c1e	-0.111870036
191	0xba634500	-0.00086696446
192	0x3b176840	0.002310291
193	0xbc47b630	-0.012189433
194	0x3d183ad4	0.037165478
195	0xbdba837d	-0.09107111
196	0x3d4ba5a0	0.0497185
197	0xbde569b0	-0.11201799
198	0x3d3b9110	0.04579264
199	0x3d98c194	0.07458797
200	0xbda2ebba	-0.079551175
201	0xbd070570	-0.03296417
202	0xbd7da590	-0.06192547
203	0x3d09f084	0.03367664
204	0x3da80812	0.08204664
205	0xbd21012c	-0.03930776
206	0xbdb401ce	-0.08789407
207	0x3d3225d8	0.04349312
208	0x3de5a16c	0.112124294
209	0x3d9e1bb8	0.07720131
210	0xbd20a148	-0.03921631
211	0x3db1fa7e	0.08690356
212	0xbd0065f2	-0.031347223
213	0x3df8f39a	0.12155838
214	0x3ada2a80	0.0016644746
215	0xbd44e47e	-0.04806947
216	0xbd941eda	-0.07232447
217	0xbbefc1a0	-0.007316783
218	0x3ca08eb8	0.019599304
219	0xbda8cf84	-0.082427055
220	0xbd8e9f56	-0.06963985
221	0x3c0eb810	0.008710876
222	0x3df3e9fe	0.11909865
223	0x3c8ff8d0	0.017574698
224	0xbda5a92a	-0.08088906
225	0xbde86eef	-0.11349284
226	0xbce91f90	-0.028457433
227	0xbda9faca	-0.08299787
228	0xbc8ea434	-0.017412283
229	0x3d0f13e4	0.03493108
230	0xbd98709f	-0.07443356
231	0x3d851dda	0.06499834
232	0xbde8479a	-0.11341782
233	0xbdb901f5	-0.090335764
234	0x3dcb80b2	0.09936656
235	0xbd120140	-0.035645723
236	0xbdc8faa1	-0.09813429
237	0xbdc20c1b	-0.09474965
238	0xbc9c2544	-0.019060738
239	0xbdcb79ec	-0.09935364
240	0xbd53bc54	-0.051693276
241	0x3d663d24	0.056210652
242	0xbd01ccc0	-0.031689405
243	0x3d9a302a	0.07528718
244	0x3c849778	0.016185507
245	0xbd02961a	-0.03188143
246	0xbc409168	-0.011753418
247	0x3daf09ce	0.08546792
248	0xbdf4fd38	-0.1196236
249	0xbd5b8544	-0.05359389
250	0xbd0fa294	-0.035067156
251	0xbdcb7c67	-0.09935837
252	0x3b1ee800	0.002424717
253	0x3c833988	0.016018644
254	0xbb01f160	-0.0019827709
255	0xbd6502b8	-0.055910796

encoder.4.bias f4 [50]
0	0x3ceb3a80	0.028714418
1	0xbbfcee60	-0.007718846
2	0xbd4712c2	-0.048601873
3	0x3bc61c60	0.006045863
4	0xbd3e2592	-0.04642255
5	0xbddee5bf	-0.10883664
6	0xbdfd963d	-0.12382171
7	0xbb210440	-0.0024569184
8	0x3dcf534e	0.10123311
9	0x3d4eb94c	0.05046968
10	0xbc74d8c8	-0.014944263
11	0x3c91f588	0.017817274
12	0xbc85de94	-0.016341485
13	0xbdd17d8c	-0.10229024
14	0xbd5fdf4a	-0.054656304
15	0xbd8e359d	-0.0694382
16	0x3dabbee6	0.0838602
17	0x3d155cc4	0.03646542
18	0xbd2a7fce	-0.04162579
19	0xbc8e51e0	-0.017373025
20	0x3d156834	0.03647633
21	0x3dc4666a	0.095898464
22	0xbd856cc3	-0.06514885
23	0xbd5d54b6	-0.054035865
24	0x3d66854c	0.056279466
25	0xbbd8a520	-0.0066114813
26	0xbd9fe162	-0.0780666
27	0xbd9ffc00	-0.07811737
28	0xbdfc0969	-0.12306482
29	0xbaaa5540	-0.0012995377
30	0xbdce468e	-0.10072051
31	0xbbb49bb0	-0.0055117235
32	0x3cf44cb0	0.029821724
33	0xbdbfbeab	-0.09362539
34	0xbdd1b3f6	-0.10239403
35	0xbd196f16	-0.037459455
36	0xbdd57321	-0.1042235
37	0x3daf891a	0.08571072
38	0xbb30cd00	-0.0026977658
39	0x3d1665d8	0.03671822
40	0x3d0f17f0	0.034934938
41	0xbde2a1ca	-0.11066015
42	0x3df426b6	0.11921446
43	0x3c85ee08	0.016348854
44	0x3d61f0ec	0.0551614
45	0xbc26bff8	-0.010177605
46	0x3dfc8198	0.123294055
47	0xbdbc4117	-0.091921024
48	0x3dd866ea	0.10566504
49	0x3c5928e0	0.013254374

decoder_common.0.weight f4 [65, 25]
0	0x3e1c9323	0.15290503
1	0x3d89c632	0.06727256
2	0xbe1add75	-0.15123542
3	0x3d25bd34	0.04046364
4	0xbe25aae3	-0.1617847
5	0xbe3dc088	-0.18530476
6	0xbdcc5c5a	-0.09978552
7	0x3b83d940	0.004023701
8	0xbcf26128	-0.029587343
9	0x3d2bd818	0.04195413
10	0xbdb632fa	-0.08896442
11	0x3bd96360	0.006634161
12	0x3c990468	0.018678859
13	0x3da0512e	0.07827984
14	0x3ca4c3b0	0.020112842
15	0x3d58b554	0.052907303
16	0xbd172978	-0.036904782
17	0x3e3d9acf	0.18516086
18	0x3e28a0f1	0.16467644
19	0x3c842f40	0.016135812
20	0x3b14dd40	0.0022714883
21	0xbd81446c	-0.063118786
22	0x3e3869f9	0.18009175
23	0xbe191a36	-0.14951405
24	0xbde1d197	-0.11026304
25	0x3e12cf29	0.14336838
26	0x3dbdaf92	0.09262003
27	0x3d871322	0.06595446
28	0x3df275c2	0.11838867
29	0x3d067360	0.032824874
30	0x3e16ef7d	0.14739795
31	0xbb429c80	-0.0029695332
32	0xbe491b62	-0.19639352
33	0xbdf37b7d	-0.11888788
34	0xbdf6eed7	-0.12057274
35	0xbdf738c7	-0.12071376
36	0xbe4369b2	-0.19083288
37	0x3e100dfb	0.14067833
38	0xbba0ca40	-0.0049069226
39	0xbc8b59b0	-0.01701054
40	0x3c9afef0	0.018920392
41	0x3e2b82b1	0.16749074
42	0x3e021e61	0.12706901
43	0x3e0bf8fb	0.13669197
44	0x3e0e71cd	0.13910599
45	0x3e2cde27	0.1688162
46	0x3cb254f0	0.021769017
47	0x3dc94096	0.09826772
48	0xbd915c30	-0.070976615
49	0x3d9ffd16	0.07811944
50	0x3e137183	0.1439877
51	0xbe414720	-0.18874788
52	0x3e4a9235	0.19782336
53	0x3db295fe	0.08720015
54	0xbe05c0c5	-0.13061817
55	0xbd6eb474	-0.058277562
56	0xbb9fb600	-0.004873991
57	0x3e47d819	0.19516028
58	0xbe0dc46e	-0.13844463
59	0xbbcdaa60	-0.006276414
60	0x3d1b35a8	0.037892967
61	0xbe27a5aa	-0.1637179
62	0x3e3d7033	0.18499832
63	0xbda99f6d	-0.08282361
64	0x3e0a8153	0.13525896
65	0xbc599400	-0.013279915
66	0xbdb03c0a	-0.086052015
67	0xbd83fb7a	-0.0644445
68	0xbe2eeae2	-0.17081788
69	0x3e2cdfb7	0.16882215
70	0x3e049369	0.12946858
71	0x3d90d51e	0.07071899
72	0x3e485bff	0.19566344
73	0xbe405758	-0.18783319
74	0x3e381125	0.1797529
75	0x3b331ac0	0.0027329177
76	0x3d35aa98	0.044352144
77	0xbcee0090	-0.029053003
78	0x3defd1e2	0.11709954
79	0xbd826b56	-0.06368129
80	0x3e22e175	0.15906318
81	0xbd2459d4	-0.04012473
82	0xbd98ba80	-0.07457447
83	0xbd9571ea	-0.07297118
84	0xbe16feea	-0.1474568
85	0x3e435331	0.19074704
86	0xbe4594bb	-0.19295017
87	0x3d68d35c	0.056842193
88	0xbe2bd4a6	-0.16780338
89	0xbcbba368	-0.022905067
90	0xbcef2258	-0.029191181
91	0x3da0424e	0.078251466
92	0xbe0d747d	-0.13813968
93	0xbd1e1ac0	-0.03859973
94	0xbd9085da	-0.0705678
95	0x3e146549	0.14491762
96	0xbe4537a2	-0.19259503
97	0x3e370059	0.17871226
98	0xbddfb017	-0.10922258
99	0x3ceb9690	0.028758317
100	0xbdad791d	-0.08470366
101	0x3dddc586	0.1082869
102	0x3cdc0e30	0.026862234
103	0xbdf8211d	-0.12115691
104	0xbd636d28	-0.05552402
105	0xbe370860	-0.17874289
106	0x3e308b77	0.17240702
107	0x3e07a457	0.13246284
108	0x3dc6a672	0.09699716
109	0xbdd247c7	-0.10267597
110	0xbc9ed3e8	-0.019388154
111	0xbe188546	-0.1489459
112	0x3e372875	0.17886527
113	0xbe05dc66	-0.13072357
114	0xbe28d1f5	-0.16486342
115	0x3e3863db	0.18006842
116	0x3d27e34c	0.04098825
117	0xbd727800	-0.059196472
118	0x3e036139	0.12830056
119	0xbcb17840	-0.021663785
120	0x3dc21792	0.09477152
121	0x3db8c3a2	0.09021689
122	0xbe06f62d	-0.13179846
123	0x3d11d620	0.035604596
124	0xbd6ef494	-0.058338717
125	0x3d419c80	0.04726839
126	0xbd172388	-0.03689912
127	0xbdc4194a	-0.09575136
128	0xbe3b60f7	-0.18298708
129	0x3d1e80d8	0.038697094
130	0x3d7b5a34	0.06136532
131	0x3e38ffcb	0.18066327
132	0xbe1fc9c5	-0.15604313
133	0xbd7eca40	-0.0622046
134	0x3e177785	0.14791687
135	0xb940a800	-0.00018373132
136	0xbbcdb0a0	-0.006277159
137	0xbe17bbc6	-0.14817724
138	0xbcd7cef0	-0.026343793
139	0xbd8fbda4	-0.07018593
140	0x3e1c8091	0.15283419
141	0xbe14dd23	-0.14537482
142	0x3d647df4	0.05578418
143	0xbcd5cd50	-0.026098877
144	0xbdb40db3	-0.087916754
145	0xbd99c15a	-0.07507582
146	0x3e06fb13	0.13181715
147	0xbc04e460	-0.0081110895
148	0xbd3007a8	-0.04297605
149	0x3e0ae5a9	0.13564171
150	0x3ce22970	0.02760765
151	0x3dbb4732	0.09144439
152	0xbd82f1e6	-0.06393795
153	0xbe0db0a3	-0.13836913
154	0x3e48d01f	0.19610642
155	0x3d5b98ec	0.053612635
156	0x3d94f242	0.072727695
157	0xbd786958	-0.06064734
158	0x3e03a5db	0.12856238
159	0x3e145607	0.14485942
160	0x3d137e74	0.036009267
161	0xbe026cb2	-0.12736776
162	0xbe0ab892	-0.1354697
163	0xbe45ea5a	-0.1932768
164	0x3d8844f6	0.06653778
165	0x3ce4bc50	0.027921826
166	0xbe22056e	-0.15822384
167	0x3db16b7e	0.08663081
168	0xbe199266	-0.14997253
169	0xbd190acc	-0.037363812
170	0x3e399b1f	0.1812558
171	0xbd428cd4	-0.047497585
172	0x3e461171	0.19342591
173	0x3e44afad	0.1920764
174	0xbe25af4d	-0.16180153
175	0xbe2f9a9f	-0.17148827
176	0x3e37a773	0.1793497
177	0xbe0bf3dd	-0.13667245
178	0x3d93787e	0.072007164
179	0xbe07008a	-0.131838
180	0x3dbb63f2	0.091499224
181	0xbe09dc34	-0.13462907
182	0xbd0100e0	-0.031494975
183	0x3e244e13	0.16045408
184	0x3e0b53db	0.13606207
185	0x3e087c51	0.13328673
186	0xbcef42c0	-0.029206634
187	0x3d458260	0.04822004
188	0xbe1044ea	-0.14088789
189	0xbbc53260	-0.006017968
190	0x3e1a5147	0.15070067
191	0x3e0dbbdf	0.13841198
192	0xbd048320	-0.032351613
193	0x3d4ce994	0.050027445
194	0x3d9800be	0.074220166
195	0xbd874f9c	-0.06606981
196	0x3dd80332	0.105474845
197	0x3e2d9163	0.16949992
198	0xbe1d099b	-0.15335695
199	0x3dcb386e	0.099228725
200	0xbde8dd8d	-0.113703825
201	0x3decccf2	0.11562528
202	0x3e1c1575	0.1524256
203	0xbc649620	-0.013951808
204	0x3d58b424	0.05290617
205	0x3d52c03c	0.05145286
206	0xbe1aa1d8	-0.15100801
207	0xbd934fa4	-0.071929246
208	0xbd8c9e36	-0.06866114
209	0xbd755608	-0.0598965
210	0x3e0f7707	0.14010249
211	0xbdf692ea	-0.120397404
212	0x3e2ab351	0.16669966
213	0x3e453e71	0.19262101
214	0x3d6fc264	0.058534995
215	0x3e49ee33	0.19719772
216	0x3daafd72	0.08349122
217	0x3e17cd1d	0.14824338
218	0x3dd78c26	0.10524778
219	0x3d94e78a	0.07270725
220	0xbe371288	-0.17878163
221	0xbdaf4bb7	-0.08559363
222	0x3e1ff305	0.15620048
223	0xbd4aa638	-0.049474925
224	0xbdb54c50	-0.08852446
225	0x3d95a3aa	0.07306607
226	0x3c6966a0	0.014245659
227	0x3e0b99e9	0.13632931
228	0xbe0a627d	-0.13514133
229	0xbdbf80e3	-0.09350755
230	0x3e160d23	0.14653449
231	0xbe33557f	-0.17513083
232	0xbe372837	-0.17886434
233	0x3dbfa3d2	0.09357418
234	0xbd94e554	-0.07270303
235	0x3e299501	0.16560747
236	0xbdf8ea87	-0.121541075
237	0xbc5304a0	-0.012879521
238	0x3e4015b9	0.18758287
239	0xbe3e91f8	-0.1861037
240	0xbc9a1840	-0.018810391
241	0x3dc31536	0.0952553
242	0x3c560d30	0.013064668
243	0xbe2ffa07	-0.17185222
244	0x3e468b59	0.19389094
245	0xbd10a380	-0.035312176
246	0x3d96f45e	0.07370828
247	0xbe3050bf	-0.17218302
248	0xbd10dfe8	-0.035369784
249	0xbe16f9ed	-0.14743777
250	0xbdc26c23	-0.09493282
251	0xbe37527f	-0.17902564
252	0x3e0098eb	0.12558334
253	0xbb4384c0	-0.0029833764
254	0xbde5495a	-0.11195631
255	0xbde2419d	-0.11047671

decoder_common.0.bias f4 [65]
0	0x3db98812	0.090591565
1	0x3e12798d	0.1430418
2	0xbd403d94	-0.046933725
3	0x3d4b5698	0.04964313
4	0x3e3e37b7	0.18575941
5	0x3d4aee6c	0.049543783
6	0x3e3fef8b	0.18743722
7	0xbe08408d	-0.13305874
8	0xbdbf4217	-0.093387775
9	0xbd821196	-0.063510105
10	0x3d71c224	0.059023038
11	0x3db3d666	0.08781128
12	0xbe482640	-0.19545841
13	0xbdd4f12a	-0.10397561
14	0xbe49d35a	-0.1970953
15	0xbc4aabd0	-0.012370065
16	0x3d63a0c4	0.05557324
17	0x3d9b992a	0.07597573
18	0x3e03d623	0.12874655
19	0x3dab66b2	0.08369197
20	0xbdec7e7d	-0.11547563
21	0xbe4889df	-0.19583844
22	0xbd1f102c	-0.038833782
23	0xbdd1ceb3	-0.10244503
24	0x3e2f06e5	0.17092474
25	0xbd3e8114	-0.046509817
26	0x3e21cb7b	0.15800278
27	0xbd2a5bb4	-0.04159136
28	0xbd9e8460	-0.07740092
29	0xbd435dec	-0.047696993
30	0x3dae3896	0.08506887
31	0x3cbc1a90	0.022961885
32	0x3dd41012	0.10354628
33	0xbe2bc8e2	-0.1677585
34	0x3e2ff443	0.17183022
35	0x3e447953	0.19186907
36	0x3d77ef6c	0.060531065
37	0x3b2160c0	0.0024624318
38	0xbdc98427	-0.09839659
39	0x3e11caa1	0.14237453
40	0xbddbcd7d	-0.10732553
41	0x3e1e0dfd	0.15435024
42	0x3e1118b1	0.14169575
43	0x3d7b59bc	0.061364874
44	0x3d8b64e2	0.06806351
45	0x3e11c0e9	0.14233746
46	0xbdf0f3b0	-0.1176523
47	0xbd0c12d8	-0.03419766
48	0xbdc7cab7	-0.09755462
49	0xbdbc5a20	-0.091968775
50	0x3e44fe47	0.19237624
51	0xbe2e2120	-0.17004824
52	0x3c5ea680	0.013589501
53	0x3dd420ee	0.10357843
54	0xbe329da7	-0.17442952
55	0xbe01615a	-0.12634793
56	0x3dac318e	0.08407889
57	0xbdfa189d	-0.12211726
58	0xbc8cb6d0	-0.017177016
59	0x3e4304fb	0.19044869
60	0x3ddc7882	0.107651725
61	0xbc1de120	-0.0096361935
62	0x3d281980	0.041039944
63	0xbcc7ff90	-0.024413854
64	0xbe0646bd	-0.13112922

decoder_common.2.weight f4 [65]
0	0x3f800000	1.0
1	0x3f800000	1.0
2	0x3f800000	1.0
3	0x3f800000	1.0
4	0x3f800000	1.0
5	0x3f800000	1.0
6	0x3f800000	1.0
7	0x3f800000	1.0
8	0x3f800000	1.0
9	0x3f800000	1.0
10	0x3f800000	1.0
11	0x3f800000	1.0
12	0x3f800000	1.0
13	0x3f800000	1.0
14	0x3f800000	1.0
15	0x3f800000	1.0
16	0x3f800000	1.0
17	0x3f800000	1.0
18	0x3f800000	1.0
19	0x3f800000	1.0
20	0x3f800000	1.0
21	0x3f800000	1.0
22	0x3f800000	1.0
23	0x3f800000	1.0
24	0x3f800000	1.0
25	0x3f800000	1.0
26	0x3f800000	1.0
27	0x3f800000	1.0
28	0x3f800000	1.0
29	0x3f800000	1.0
30	0x3f800000	1.0
31	0x3f800000	1.0
32	0x3f800000	1.0
33	0x3f800000	1.0
34	0x3f800000	1.0
35	0x3f800000	1.0
36	0x3f800000	1.0
37	0x3f800000	1.0
38	0x3f800000	1.0
39	0x3f800000	1.0
40	0x3f800000	1.0
41	0x3f800000	1.0
42	0x3f800000	1.0
43	0x3f800000	1.0
44	0x3f800000	1.0
45	0x3f800000	1.0
46	0x3f800000	1.0
47	0x3f800000	1.0
48	0x3f800000	1.0
49	0x3f800000	1.0
50	0x3f800000	1.0
51	0x3f800000	1.0
52	0x3f800000	1.0
53	0x3f800000	1.0
54	0x3f800000	1.0
55	0x3f800000	1.0
56	0x3f800000	1.0
57	0x3f800000	1.0
58	0x3f800000	1.0
59	0x3f800000	1.0
60	0x3f800000	1.0
61	0x3f800000	1.0
62	0x3f800000	1.0
63	0x3f800000	1.0
64	0x3f800000	1.0

decoder_common.2.bias f4 [65]
0	0x00000000	0.0
1	0x00000000	0.0
2	0x00000000	0.0
3	0x00000000	0.0
4	0x00000000	0.0
5	0x00000000	0.0
6	0x00000000	0.0
7	0x00000000	0.0
8	0x00000000	0.0
9	0x00000000	0.0
10	0x00000000	0.0
11	0x00000000	0.0
12	0x00000000	0.0
13	0x00000000	0.0
14	0x00000000	0.0
15	0x00000000	0.0
16	0x00000000	0.0
17	0x00000000	0.0
18	0x00000000	0.0
19	0x00000000	0.0
20	0x00000000	0.0
21	0x00000000	0.0
22	0x00000000	0.0
23	0x00000000	0.0
24	0x00000000	0.0
25	0x00000000	0.0
26	0x00000000	0.0
27	0x00000000	0.0
28	0x00000000	0.0
29	0x00000000	0.0
30	0x00000000	0.0
31	0x00000000	0.0
32	0x00000000	0.0
33	0x00000000	0.0
34	0x00000000	0.0
35	0x00000000	0.0
36	0x00000000	0.0
37	0x00000000	0.0
38	0x00000000	0.0
39	0x00000000	0.0
40	0x00000000	0.0
41	0x00000000	0.0
42	0x00000000	0.0
43	0x00000000	0.0
44	0x00000000	0.0
45	0x00000000	0.0
46	0x00000000	0.0
47	0x00000000	0.0
48	0x00000000	0.0
49	0x00000000	0.0
50	0x00000000	0.0
51	0x00000000	0.0
52	0x00000000	0.0
53	0x00000000	0.0
54	0x00000000	0.0
55	0x00000000	0.0
56	0x00000000	0.0
57	0x00000000	0.0
58	0x00000000	0.0
59	0x00000000	0.0
60	0x00000000	0.0
61	0x00000000	0.0
62	0x00000000	0.0
63	0x00000000	0.0
64	0x00000000	0.0

decoder_common.2.running_mean f4 [65]
0	0x00000000	0.0
1	0x00000000	0.0
2	0x00000000	0.0
3	0x00000000	0.0
4	0x00000000	0.0
5	0x00000000	0.0
6	0x00000000	0.0
7	0x00000000	0.0
8	0x00000000	0.0
9	0x00000000	0.0
10	0x00000000	0.0
11	0x00000000	0.0
12	0x00000000	0.0
13	0x00000000	0.0
14	0x00000000	0.0
15	0x00000000	0.0
16	0x00000000	0.0
17	0x00000000	0.0
18	0x00000000	0.0
19	0x00000000	0.0
20	0x00000000	0.0
21	0x00000000	0.0
22	0x00000000	0.0
23	0x00000000	0.0
24	0x00000000	0.0
25	0x00000000	0.0
26	0x00000000	0.0
27	0x00000000	0.0
28	0x00000000	0.0
29	0x00000000	0.0
30	0x00000000	0.0
31	0x00000000	0.0
32	0x00000000	0.0
33	0x00000000	0.0
34	0x00000000	0.0
35	0x00000000	0.0
36	0x00000000	0.0
37	0x00000000	0.0
38	0x00000000	0.0
39	0x00000000	0.0
40	0x00000000	0.0
41	0x00000000	0.0
42	0x00000000	0.0
43	0x00000000	0.0
44	0x00000000	0.0
45	0x00000000	0.0
46	0x00000000	0.0
47	0x00000000	0.0
48	0x00000000	0.0
49	0x00000000	0.0
50	0x00000000	0.0
51	0x00000000	0.0
52	0x00000000	0.0
53	0x00000000	0.0
54	0x00000000	0.0
55	0x00000000	0.0
56	0x00000000	0.0
57	0x00000000	0.0
58	0x00000000	0.0
59	0x00000000	0.0
60	0x00000000	0.0
61	0x00000000	0.0
62	0x00000000	0.0
63	0x00000000	0.0
64	0x00000000	0.0

decoder_common.2.running_var f4 [65]
0	0x3f800000	1.0
1	0x3f800000	1.0
2	0x3f800000	1.0
3	0x3f800000	1.0
4	0x3f800000	1.0
5	0x3f800000	1.0
6	0x3f800000	1.0
7	0x3f800000	1.0
8	0x3f800000	1.0
9	0x3f800000	1.0
10	0x3f800000	1.0
11	0x3f800000	1.0
12	0x3f800000	1.0
13	0x3f800000	1.0
14	0x3f800000	1.0
15	0x3f800000	1.0
16	0x3f800000	1.0
17	0x3f800000	1.0
18	0x3f800000	1.0
19	0x3f800000	1.0
20	0x3f800000	1.0
21	0x3f800000	1.0
22	0x3f800000	1.0
23	0x3f800000	1.0
24	0x3f800000	1.0
25	0x3f800000	1.0
26	0x3f800000	1.0
27	0x3f800000	1.0
28	0x3f800000	1.0
29	0x3f800000	1.0
30	0x3f800000	1.0
31	0x3f800000	1.0
32	0x3f800000	1.0
33	0x3f800000	1.0
34	0x3f800000	1.0
35	0x3f800000	1.0
36	0x3f800000	1.0
37	0x3f800000	1.0
38	0x3f800000	1.0
39	0x3f800000	1.0
40	0x3f800000	1.0
41	0x3f800000	1.0
42	0x3f800000	1.0
43	0x3f800000	1.0
44	0x3f800000	1.0
45	0x3f800000	1.0
46	0x3f800000	1.0
47	0x3f800000	1.0
48	0x3f800000	1.0
49	0x3f800000	1.0
50	0x3f800000	1.0
51	0x3f800000	1.0
52	0x3f800000	1.0
53	0x3f800000	1.0
54	0x3f800000	1.0
55	0x3f800000	1.0
56	0x3f800000	1.0
57	0x3f800000	1.0
58	0x3f800000	1.0
59	0x3f800000	1.0
60	0x3f800000	1.0
61	0x3f800000	1.0
62	0x3f800000	1.0
63	0x3f800000	1.0
64	0x3f800000	1.0

head_mu.0.weight f4 [130, 65]
0	0xbd271e46	-0.040800355
1	0x3dd33238	0.10312313
2	0xbb5abb40	-0.003337577
3	0xbde84e8a	-0.11343105
4	0xbcbf178c	-0.023326658
5	0xbd862b04	-0.06551173
6	0x3ddce050	0.10784972
7	0xbdceaf57	-0.10092037
8	0xbd890b42	-0.066916004
9	0x3daee82c	0.08540377
10	0xbdd82e2c	-0.105556816
11	0xbd8bde2f	-0.068294875
12	0xbdfdface	-0.12401353
13	0xbd263f8a	-0.04058794
14	0x3d9025d0	0.07038462
15	0x3cfaadd0	0.030600458
16	0x3de4f7c2	0.111800686
17	0x3d6c47bc	0.0576856
18	0x3de90c1a	0.11379261
19	0x3d9d8f14	0.076933056
20	0xbda7a466	-0.081856534
21	0xbdd711cb	-0.105014406
22	0xbd6f7d4c	-0.0584691
23	0x3ba10560	0.004913971
24	0xbcd50a68	-0.026005939
25	0xbdf05c4e	-0.11736356
26	0xbcde061c	-0.027102523
27	0xbb7af400	-0.0038292408
28	0xbde672ac	-0.11252341
29	0x3d648f78	0.055800885
30	0x3db61592	0.08890833
31	0x3af76980	0.0018876046
32	0xbdf236b7	-0.11826842
33	0x3ded15de	0.115764365
34	0xbdfc40db	-0.12317058
35	0x3dc586e2	0.096448675
36	0x3dc3ce06	0.0956078
37	0xbd666dfe	-0.05625724
38	0x3df574b8	0.11985153
39	0x3da5f6c4	0.081037074
40	0x3cf5eac0	0.030019164
41	0x3debedba	0.11519952
42	0x3daffd2e	0.08593212
43	0xbddd5188	-0.108065665
44	0x3b8fcaa0	0.0043881685
45	0x3db87e4c	0.09008464
46	0xbdf8770f	-0.121320836
47	0xbd3cc842	-0.04608942
48	0xbdb94145	-0.09045652
49	0x3dc4e6c8	0.096143305
50	0x3d3d0c24	0.046154156
51	0xbdc36e33	-0.09542503
52	0x3deb43ca	0.11487539
53	0x3de265d6	0.1105458
54	0x3db52dde	0.08846639
55	0x3d0d9db0	0.03457421
56	0xbcfe8908	-0.031071201
57	0x3df9dd10	0.122003675
58	0xbd892a14	-0.06697479
59	0x3c7d5870	0.01546298
60	0x3d92d5a4	0.07169655
61	0xbd9763a9	-0.073920555
62	0x3dee34a6	0.11631136
63	0xbd2fcf16	-0.042922102
64	0x3dc37252	0.09543289
65	0xbb12bfe0	-0.0022392198
66	0x3d987f36	0.074461386
67	0xbd770b3c	-0.06031345
68	0xbc69ebe8	-0.014277436
69	0x3c51c530	0.012803361
70	0xba9a2200	-0.00117594
71	0x3d3404c8	0.043949872
72	0xbdbbff76	-0.09179585
73	0x3dde2cfa	0.10848422
74	0xbddedf99	-0.108824916
75	0x3d6aa578	0.05728671
76	0xbdf896bc	-0.12138125
77	0x3c2a04c0	0.010377109
78	0xbd085c42	-0.03329111
79	0xbd816088	-0.0631724
80	0xbdd31ad3	-0.10307851
81	0xbde68d33	-0.112574
82	0xbdf52326	-0.11969595
83	0xbde4c498	-0.1117031
84	0xbcce73bc	-0.02520167
85	0xbdaf84d6	-0.08570258
86	0xbda1f003	-0.07907107
87	0xbd4b4a36	-0.04963132
88	0xbd99ed33	-0.07515945
89	0x3bfa19e0	0.007632479
90	0xbc6f07d8	-0.014589272
91	0x3de3e1e2	0.11127068
92	0x3dd2ed14	0.10299125
93	0xbd675784	-0.056479946
94	0x3de8044a	0.11328943
95	0x3dd4f89a	0.103989795
96	0xbd972b3e	-0.07381295
97	0xbc714690	-0.014726296
98	0x3d23c688	0.039984256
99	0x3d60cdb4	0.054883674
100	0xbdc6fadd	-0.09715817
101	0xbdf6bbc4	-0.12047532
102	0x3d1d318c	0.03837733
103	0x3d2cf338	0.04222414
104	0x3db046d4	0.086072594
105	0xbd37c004	-0.044860855
106	0x3c0efda0	0.008727461
107	0x3ca1da80	0.01975751
108	0x3d1a82b8	0.03772232
109	0xbb385a80	-0.0028130114
110	0xbd238b52	-0.039927788
111	0x3d54edcc	0.051984593
112	0xbdfa21c7	-0.12213474
113	0x3cabf598	0.020991132
114	0x3d432604	0.047643676
115	0xbd825920	-0.063646555
116	0xbdb92ae2	-0.09041382
117	0x3c7729c0	0.015085638
118	0x3dd606fa	0.104505494
119	0xbca6f7fc	-0.02038192
120	0x3bf5b8a0	0.0074988157
121	0x3df15478	0.11783689
122	0x3d5e9a0c	0.05434613
123	0x3d693f24	0.05694498
124	0x3dee5ba2	0.11638571
125	0xbcad3af0	-0.021146268
126	0x3df94006	0.121704146
127	0xbde50144	-0.11181882
128	0xbd1a486e	-0.03766673
129	0x3d82e90e	0.06392108
130	0xbd9988b1	-0.07496775
131	0xbde5f6d6	-0.11228721
132	0xbd400088	-0.046875507
133	0x3dba5d7a	0.090998605
134	0x3c84cbc0	0.016210437
135	0xbc0d00c8	-0.008606143
136	0x3dd4bbce	0.103873834
137	0xbc165630	-0.009175822
138	0xbb677ca0	-0.0035322085
139	0x3d2971b0	0.041368186
140	0x3dc64646	0.09681372
141	0xbd61796c	-0.055047438
142	0x3db65c50	0.08904326
143	0x3dfc8046	0.12329154
144	0xbde52a9d	-0.111897685
145	0x3db2d626	0.08732252
146	0x3cb259a8	0.021771267
147	0xbdb7a5a9	-0.08967144
148	0xbd96f480	-0.073708534
149	0x3d450fcc	0.04811077
150	0xbcac3a98	-0.021024033
151	0x3df7f5be	0.121074185
152	0xbc5d7668	-0.013517
153	0x3d992184	0.07477096
154	0x3c837458	0.016046688
155	0x3d6787f0	0.056526124
156	0xbd863c8f	-0.065545194
157	0xbca29b64	-0.019849487
158	0xbd200cfc	-0.039074883
159	0xbdeca69e	-0.11555217
160	0xbda49170	-0.080355525
161	0xbdc70556	-0.097178146
162	0x3d709138	0.05873224
163	0x3d288cc8	0.041149884
164	0xbd2700de	-0.04077231
165	0xbbf48af0	-0.0074628517
166	0x3ccd9ca0	0.025099099
167	0x3d731f54	0.05935605
168	0x3dfddbb0	0.12395418
169	0xbd8e6e8e	-0.069546804
170	0x3dbe0ba4	0.09279564
171	0x3d2dc374	0.042422727
172	0xbdd6c681	-0.1048708
173	0xbd58bc84	-0.052914158
174	0xbd914993	-0.07094111
175	0xbd8a0c79	-0.0674066
176	0xbdb92d94	-0.090418965
177	0xbdf3719a	-0.11886902
178	0x3d93ccf0	0.07216823
179	0xbd993604	-0.07481006
180	0xbca589c4	-0.020207293
181	0x3df8b396	0.12143628
182	0x3c382700	0.011239767
183	0x3bc67060	0.0060558766
184	0x3a48fa80	0.0007666722
185	0xbdfd2016	-0.123596355
186	0xbd8cb60b	-0.068706594
187	0xbdd53f46	-0.10412459
188	0x3dbfa7ac	0.09358153
189	0xbcf67078	-0.030082926
190	0xbb8ed650	-0.004359044
191	0x3df9bb02	0.12193872
192	0xbd922aaa	-0.07137044
193	0xbd960dd0	-0.07326853
194	0x3de7de16	0.113216564
195	0x3bb6a5c0	0.005573958
196	0x3dedf7d8	0.11619538
197	0x3d9c51d8	0.07632798
198	0xbd376a14	-0.0447789
199	0x3d91ba26	0.07115583
200	0xbcb33938	-0.02187787
201	0x3b7e6e40	0.0038823038
202	0xbd1d808c	-0.03845267
203	0xbdfaa239	-0.12237973
204	0xbdc423ed	-0.09577165
205	0x3de6107a	0.112336114
206	0x3d872b6e	0.066000804
207	0x3ce39aa0	0.027783692
208	0x3d657524	0.056019917
209	0xbc7f0500	-0.015565157
210	0x3d5498ac	0.05190341
211	0x3d8b0dcc	0.06789741
212	0xbd83e2ea	-0.06439765
213	0x3dfa7586	0.12229447
214	0xbbc1bce0	-0.005912408
215	0x3d193930	0.037408054
216	0xbd46f38c	-0.04857211
217	0xbdceefbb	-0.10104319
218	0xbb4b00a0	-0.0030975714
219	0xbd50b6e8	-0.050955683
220	0xbdee07ee	-0.11622606
221	0x3cd92f18	0.026511714
222	0x3d8bc06e	0.068238124
223	0xbca078bc	-0.01958882
224	0xbd803a26	-0.06261091
225	0xbdae580c	-0.08512887
226	0xbd7556e8	-0.059897333
227	0xbd90edb0	-0.07076585
228	0xbdf870e1	-0.12130905
229	0x3d9a8760	0.07545352
230	0xbca6671c	-0.020312838
231	0x3c1d5820	0.00960353
232	0xbd82ea63	-0.06392362
233	0x3d96c186	0.073611304
234	0xbd88d4f4	-0.066812426
235	0x3ddd5d5e	0.10808824
236	0x3db08494	0.08619037
237	0x3d00042c	0.03125398
238	0xbdcf58ca	-0.10124357
239	0x3cad6fd0	0.02117148
240	0xbddcbb5d	-0.10777924
241	0x3d37d91c	0.044884786
242	0xbdc7919c	-0.0974457
243	0x3d7ae094	0.06124933
244	0x3cce0778	0.025150046
245	0xbd5bd854	-0.053673103
246	0xbda8ba60	-0.08238673
247	0x3cd777e8	0.026302293
248	0xbdce89ba	-0.10084863
249	0x3d99006c	0.074707836
250	0x3d739ac8	0.059473783
251	0xbda07b58	-0.07836026
252	0x3b37acc0	0.002802655
253	0xbcea0acc	-0.028569601
254	0x3cb96a30	0.022633642
255	0xbc165ec0	-0.009177864

head_mu.0.bias f4 [130]
0	0x3deed8ba	0.11662431
1	0xbdaf77e6	-0.08567791
2	0x3dbaa340	0.09113169
3	0xbd6a7f3e	-0.057250254
4	0x3dbc5be6	0.09197216
5	0xbd035610	-0.032064497
6	0xbd1a73ba	-0.03770802
7	0x3c6c1d50	0.0144112855
8	0xbcf13f70	-0.029449195
9	0x3c9d5258	0.019204304
10	0x3d9a8ab6	0.07545988
11	0xbd71c8f6	-0.059029542
12	0x3db204ce	0.08692323
13	0x3cbc2c28	0.022970274
14	0xbde16168	-0.11004907
15	0xbcf92e70	-0.030417651
16	0xbcc8005c	-0.024414234
17	0x3d2b2a8c	0.041788623
18	0xbdf59c2f	-0.1199268
19	0xbd79c168	-0.060975462
20	0x3c5a86f0	0.013337836
21	0x3de91630	0.11381185
22	0x3d8732a8	0.06601459
23	0xbd4a5a90	-0.049402773
24	0x3bf28d40	0.007402092
25	0xbcd01e50	-0.02540508
26	0xbdbcff24	-0.09228352
27	0xbd23a804	-0.039955154
28	0xbd40c31c	-0.04706107
29	0x3cdc5c20	0.026899397
30	0xbd0dd146	-0.034623407
31	0x3deac228	0.114628136
32	0xbdcdd9a3	-0.100512765
33	0xbde43b12	-0.11144079
34	0xbbfbb5e0	-0.0076815933
35	0x3dce1a50	0.100636125
36	0x3c569c40	0.013098776
37	0x3df2f034	0.11862221
38	0x3d578920	0.052621007
39	0x3cc627f8	0.02418898
40	0xbd5363a0	-0.05160868
41	0x3dceb1f0	0.10092533
42	0xbcbd4f10	-0.023108989
43	0xbceddb18	-0.029035136
44	0xbd84063e	-0.06446503
45	0xbd32d46a	-0.043659605
46	0xbd3cf87e	-0.046135418
47	0x3dc7b690	0.09751618
48	0xbd166022	-0.036712773
49	0xbdede571	-0.11616028
50	0x3de5db76	0.112234995
51	0xbdf61330	-0.120153785
52	0xbc3dbe00	-0.011580944
53	0xbb458a00	-0.003014207
54	0x3dc2552e	0.09488903
55	0x3dcf73b4	0.101294905
56	0x3d239c24	0.03994383
57	0x3d7ffcb8	0.06249687
58	0xbcbf72b8	-0.023370132
59	0x3d579ec4	0.052641645
60	0xbdb3b75a	-0.08775206
61	0xbbdede80	-0.0068014264
62	0xbdb0cb20	-0.08632493
63	0xbce4ee10	-0.027945548
64	0xbbe1a9b0	-0.0068866834
65	0x3c2fc3f0	0.0107278675
66	0x3dc8e04e	0.09808408
67	0xbdbde466	-0.09272079
68	0xbdcf301f	-0.101166
69	0xbd3deb8a	-0.046367206
70	0xbde7a602	-0.1131096
71	0x3dec353e	0.11533593
72	0xbcff56cc	-0.031169318
73	0x3d7d4c80	0.061840534
74	0xbd960e6d	-0.0732697
75	0xbd6b867a	-0.057501294
76	0x3dacdbb0	0.084403396
77	0xbce93be0	-0.028470933
78	0xbbf21d20	-0.007388726
79	0xbcc11e44	-0.023574002
80	0x3dad3c22	0.08458735
81	0x3dccc734	0.099989325
82	0xbdbf59f8	-0.09343332
83	0x3cc8cda8	0.024512127
84	0xbda44140	-0.08020258
85	0xbdde004a	-0.10839899
86	0x3dccd6d4	0.10001913
87	0xbdcff170	-0.101534724
88	0xbdfb73ff	-0.12277984
89	0x3dcd6ad4	0.100301415
90	0xbdcff406	-0.10153966
91	0xbc99c408	-0.018770233
92	0xbd00268a	-0.031286754
93	0xbcab3e58	-0.020903751
94	0xbbf8ceb0	-0.0075929984
95	0x3de93fb0	0.113891006
96	0x3c915500	0.017740726
97	0x3c25ef00	0.010127783
98	0x3d32c100	0.04364109
99	0xbcecd8fc	-0.02891206
100	0xbd3c718a	-0.046006717
101	0xbd0ca276	-0.034334622
102	0x3df7a914	0.12092796
103	0xbdf30857	-0.11866825
104	0xbcb13b38	-0.021634683
105	0x3d84e188	0.06488329
106	0x3d0e497c	0.03473805
107	0xbdcb6fa6	-0.099334046
108	0xbde59f1b	-0.112119876
109	0x3d2d2734	0.042273715
110	0x3ddb9e04	0.107234985
111	0xbb9f0a20	-0.004853502
112	0xbdb43f0c	-0.08801088
113	0xbdf7cc9e	-0.120995745
114	0xbdef03a7	-0.116706185
115	0xbd412292	-0.04715211
116	0x3ca0e8e0	0.019642293
117	0x3d88e7ca	0.06684835
118	0x3d930968	0.071795285
119	0x3dab32f2	0.083593264
120	0xbd8b60ec	-0.06805596
121	0x3d787910	0.06066233
122	0x3ddab47c	0.10678956
123	0xbde02342	-0.10944225
124	0x3d866174	0.065615565
125	0xbce0d444	-0.027444966
126	0xba9171c0	-0.0011096522
127	0xbce95800	-0.028484344
128	0xbd752446	-0.059849046
129	0x3da70db8	0.081569135
